MNIST CNN/Trained Models/ConvNet minibatch MNIST.pth (torch_old, 79965 bytes, 8 tensors)

weight f4 [6, 1, 3, 3]
0	0x3ea435d4	0.32072318
1	0x3eac6d06	0.33676928
2	0xbf653792	-0.8953792
3	0x3c819b47	0.015821112
4	0x3ee4a866	0.44659728
5	0xbf409639	-0.7522922
6	0xbe9a28cb	-0.30109248
7	0x3ec324ef	0.38114116
8	0x3f0c100f	0.54712003
9	0xbbdda78a	-0.006764357
10	0x3e315d01	0.17320634
11	0xbebffab1	-0.3749595
12	0x3cd62c8d	0.02614429
13	0xbf18987c	-0.5960767
14	0x3d58fc74	0.052975133
15	0x3ec13a3b	0.3773974
16	0x3e8a9fbe	0.27075
17	0xba23cf32	-0.0006248831
18	0x3ece73e1	0.40322784
19	0xbe05142f	-0.1299598
20	0xbf65ba54	-0.8973744
21	0x3f037574	0.51351094
22	0x3de67e40	0.11254549
23	0xbf8de553	-1.1085609
24	0x3ce6f44c	0.028192662
25	0xbeff3769	-0.49846962
26	0xbf83d485	-1.0299231
27	0xbeb29c37	-0.34884807
28	0x3eb1badf	0.34712884
29	0x3ebaa61b	0.36454853
30	0x3f07f7a6	0.53112257
31	0x3cc93e0d	0.02456572
32	0xbd8b13db	-0.067908965
33	0x3e922c9f	0.28549668
34	0xbec26062	-0.3796416
35	0xbeeb0c1e	-0.45907682
36	0xbec2656d	-0.37968007
37	0x3efaf2c6	0.49013346
38	0xbe653da5	-0.22386797
39	0x3ec4fdac	0.38474786
40	0x3ed0ad16	0.40757054
41	0x3d8bac1d	0.068199374
42	0xbe351e90	-0.1768744
43	0x3e010aad	0.12601729
44	0x3ed5ade2	0.41734225
45	0xbeb197e3	-0.34686193
46	0xbf3958d1	-0.7240115
47	0xbf188a03	-0.5958559
48	0x3d9c7289	0.07639033
49	0xbe1fa37f	-0.15589713
50	0x3e0c3077	0.13690363
51	0x3eae0924	0.3399135
52	0x3e6c7fc2	0.2309561
53	0x3e547157	0.2074636

bias f4 [6]
0	0xbf7c1087	-0.9846272
1	0xbf579676	-0.8421396
2	0xbdf75f58	-0.12078732
3	0xbf437c70	-0.7636175
4	0xbf167bb0	-0.5878248
5	0xbca6949c	-0.020334534

weight f4 [10, 6, 5, 5]
0	0xbf92138a	-1.1412213
1	0xbda9709e	-0.08273433
2	0xbf0b0f39	-0.543201
3	0xbe10a689	-0.14126028
4	0x3ec9f526	0.39444846
5	0x3e593440	0.21211338
6	0xbf8fd4df	-1.1236838
7	0x3f00a8a2	0.50257313
8	0x3ee38bed	0.44442692
9	0xbcbcbed4	-0.023040213
10	0xbfd2e9e2	-1.6477625
11	0x3e382679	0.17983426
12	0x3e26ae9c	0.16277546
13	0x3e12696e	0.1429803
14	0xbd94f752	-0.07273735
15	0xbef8ac6b	-0.48569044
16	0xbfa17b29	-1.261571
17	0x3bf74618	0.0075461976
18	0x3f828e24	1.0199628
19	0x3f2d715d	0.67751104
20	0xbe1bff63	-0.15234141
21	0x3e89bbab	0.26900992
22	0xbe965745	-0.29363456
23	0x3e4246c0	0.18972301
24	0x3f1501b5	0.5820573
25	0xbde5d254	-0.112217575
26	0x3e8b944c	0.2726158
27	0x3e441d39	0.19151773
28	0x3e395351	0.18098189
29	0xbeabaa54	-0.33528388
30	0xbe4504e2	-0.19240144
31	0xbec1f272	-0.37880284
32	0xbece5841	-0.40301707
33	0xbe52ad0d	-0.20573826
34	0xbd9318fa	-0.07182498
35	0x3ef967fb	0.48712143
36	0xbdc6b085	-0.09701637
37	0xbe51f597	-0.20503841
38	0x3c89c4cd	0.016817475
39	0x3f1a9da8	0.60396814
40	0x3ec7c6b1	0.39018777
41	0xbefbf062	-0.49206835
42	0xbdaaa873	-0.083329104
43	0xbef173eb	-0.4715875
44	0x3f173927	0.5907158
45	0x3db12f1a	0.08651562
46	0x3e851686	0.25993747
47	0x3d722e87	0.059126403
48	0xbf739607	-0.951508
49	0xbdb636c1	-0.08897162
50	0xbf614e5b	-0.88010186
51	0xbd96dd5e	-0.07366441
52	0xbf3fa07c	-0.74854255
53	0xbe85ea62	-0.26155382
54	0xbeed23b6	-0.46316308
55	0x3edeaeaf	0.43492648
56	0xbf1b8afa	-0.60758936
57	0xbffabe29	-1.9589282
58	0xbf457e19	-0.77145535
59	0xbecb3a80	-0.3969307
60	0xbf0a33b7	-0.5398516
61	0xbf45ec37	-0.7731356
62	0xbf1c2393	-0.6099178
63	0xbf2e3c23	-0.6806051
64	0x3e0e10a8	0.13873541
65	0x3e26b0dd	0.16278405
66	0x3ead70cb	0.33875117
67	0x3e9739a8	0.29536176
68	0x3e04750a	0.12935272
69	0x3f5010be	0.81275547
70	0x3d3676e0	0.04454696
71	0x3f5f1cf4	0.87153554
72	0x3f14a188	0.5805898
73	0xbe195833	-0.14975052
74	0x3e36595e	0.17807528
75	0x3f17b38d	0.5925835
76	0x3d83dec7	0.06438976
77	0xbd703d9c	-0.058652505
78	0xbeb6348c	-0.35586965
79	0x3ea890ee	0.32923073
80	0x3ccbad7b	0.024862995
81	0x3e08234e	0.13294718
82	0xbee857fd	-0.4537963
83	0xbe45ca95	-0.1931556
84	0x3f42520a	0.7590643
85	0x3cb98b5e	0.022649463
86	0xbe8e1344	-0.27749074
87	0xbf318ea2	-0.69358265
88	0xbfc38362	-1.527447
89	0x3f2eba29	0.6825281
90	0x3f519a9c	0.8187654
91	0xbeaf511e	-0.34241575
92	0xbf9f9af4	-1.2469163
93	0xbfb64576	-1.4239948
94	0xbebf4d5c	-0.37363708
95	0xbe5d99b8	-0.2164067
96	0xbe93c4a1	-0.28860953
97	0x3f1ba1d1	0.6079379
98	0xbf36d27e	-0.71414936
99	0xbcf6e702	-0.03013945
100	0x3ed3da76	0.4137761
101	0xbe766334	-0.2406128
102	0x3dfa8405	0.12232212
103	0xbda343ff	-0.079719536
104	0x3dc55e94	0.0963718
105	0x3dc6eb77	0.0971288
106	0x3be4973e	0.0069760373
107	0x3de31c64	0.110893995
108	0x3dd4d94c	0.103930086
109	0xbe926705	-0.28594223
110	0xbe5d3936	-0.21603855
111	0xbd31a9d9	-0.04337487
112	0x3e4a71f8	0.19770038
113	0x3f5445c7	0.8291897
114	0x3dd0e623	0.10200145
115	0x3f50e164	0.8159392
116	0xbf3ee93b	-0.7457463
117	0xbfb6c847	-1.427987
118	0x3f7fb9f4	0.99893117
119	0x3f5155a8	0.81771326
120	0xbf011698	-0.504251
121	0xbe700b70	-0.23441863
122	0xbf8b8848	-1.0900965
123	0xbef16a4e	-0.47151417
124	0x3f5f7eb2	0.87302697
125	0x3d185add	0.03719603
126	0xbd80fc94	-0.062981755
127	0x3efd0e57	0.49425003
128	0x3ed3d9fe	0.41377252
129	0x3e77bf4a	0.24194065
130	0x3dd1cbb7	0.10243934
131	0xbf3cc0aa	-0.7373148
132	0xbf6d6f51	-0.9274798
133	0xbef6d5c4	-0.48209965
134	0x3efe470d	0.49663582
135	0x3f2ace2b	0.6672084
136	0xbf913f84	-1.1347508
137	0xc0236b94	-2.553441
138	0xbf12cb11	-0.57341105
139	0x3f0884d8	0.53327703
140	0x3fab28ff	1.3371886
141	0x3ef61d97	0.4806945
142	0xbf6bea96	-0.92154825
143	0xc0287c40	-2.6325836
144	0x3eb8e337	0.3611085
145	0xbeabb8db	-0.3353947
146	0xbbb632ad	-0.0055602402
147	0x3f880b69	1.0628482
148	0xbf623674	-0.8836434
149	0xbfcb6a32	-1.5891783
150	0xbf83299a	-1.0247071
151	0xbfe55b4d	-1.7918488
152	0xbf99f503	-1.2027897
153	0xbf1fe04e	-0.62451637
154	0xbf488538	-0.78328276
155	0xbf9b8112	-1.2148764
156	0x3ee6eae4	0.45101082
157	0xbf997c47	-1.1991051
158	0x3efee010	0.4978032
159	0x3cd7eed7	0.026359005
160	0xbf4caf93	-0.79955405
161	0x3eb955e9	0.36198357
162	0xbfa3386a	-1.2751591
163	0x3e1bde9f	0.15221642
164	0xbf517eb7	-0.81833977
165	0xbe2c7dc6	-0.16844854
166	0xbeb1ad27	-0.34702417
167	0xbf3104e9	-0.6914812
168	0xbf3555c0	-0.7083397
169	0x3cc36d0a	0.023855705
170	0x3f0fffd3	0.5624973
171	0xbe8eff85	-0.2792932
172	0xbf30df1a	-0.69090426
173	0x3f38fa67	0.72257084
174	0x3f107fe9	0.56445175
175	0x3eb5e9c9	0.35529926
176	0xbeb2c3e6	-0.34915084
177	0xbe81af8c	-0.25329244
178	0xbf05248d	-0.520089
179	0xbedbc3e3	-0.42922887
180	0x3d785704	0.06062986
181	0xbde38178	-0.111086786
182	0x3e871a4b	0.26387247
183	0xbeecd12b	-0.46253332
184	0xbfb23624	-1.3922772
185	0xbfc34307	-1.525483
186	0xbf30b7c1	-0.69030386
187	0xbf2805ef	-0.65634054
188	0xbf18adef	-0.596404
189	0xbfb361bc	-1.4014201
190	0x3e2beddf	0.1678996
191	0xbf33b9c1	-0.7020531
192	0xbdc7f81d	-0.09764121
193	0xbda6e7b0	-0.0814966
194	0xbf68e866	-0.9097961
195	0x3f3969e6	0.72427213
196	0x3d2101ad	0.03930824
197	0x3e05eb62	0.13078073
198	0x3ee9ae28	0.45640683
199	0x3db69045	0.08914236
200	0xbe6e1bf6	-0.23252854
201	0xbeb10375	-0.3457295
202	0xbf1079bb	-0.56435746
203	0x3f9e4cd9	1.2367202
204	0xbea8c6af	-0.32964084
205	0xbf2e6701	-0.6812592
206	0x3d5820af	0.052765545
207	0xbf741f17	-0.9535994
208	0xb9ca696b	-0.00038606985
209	0x3f88a54c	1.0675445
210	0xc00f85eb	-2.2425487
211	0xbfec3383	-1.845322
212	0xbdf8cb55	-0.121481575
213	0xc018741d	-2.382087
214	0xbec95a94	-0.39326918
215	0xbddf9a16	-0.109180614
216	0xc02c7ae0	-2.6949997
217	0xc05a97d6	-3.4155173
218	0xc02fea19	-2.7486632
219	0xbff9a371	-1.9503003
220	0x3fcf6374	1.6202226
221	0xbf6f35bc	-0.9344137
222	0xbfae2fbe	-1.360832
223	0xbfe2f670	-1.7731457
224	0x3e953324	0.2914058
225	0x3ecde4e2	0.40213686
226	0x3f49ad90	0.7878046
227	0xbe2564f3	-0.1615179
228	0x3e8e2f23	0.27770337
229	0x3f17e2cd	0.59330446
230	0xbea49f81	-0.32152942
231	0x3db29c64	0.087212354
232	0x3ef090ea	0.4698556
233	0xbe4c66b0	-0.19961047
234	0x3f7ad6f5	0.9798425
235	0xbff1cfe7	-1.8891572
236	0xbe43cb46	-0.19120511
237	0x3e8ffd4d	0.2812294
238	0xbde21200	-0.110385895
239	0xbfe614d2	-1.7975104
240	0xc02d62cd	-2.7091553
241	0xc00854e6	-2.1301818
242	0xbf81c05f	-1.0136832
243	0xbf9c446a	-1.2208378
244	0xbf04a6ee	-0.51817214
245	0xbee8c4ef	-0.45462748
246	0xbf9def7a	-1.2338707
247	0xc0097169	-2.147547
248	0xbfe7419d	-1.8066899
249	0xbf2717df	-0.652708
250	0xbdc385c8	-0.09547001
251	0xbf052e9b	-0.5202424
252	0x3f0bf031	0.5466338
253	0x3f318d4e	0.6935624
254	0x3a50b5f0	0.0007961681
255	0x3f0264fe	0.5093535

bias f4 [10]
0	0xbe8f7a5f	-0.2802305
1	0x3d1d1568	0.038350493
2	0xbe953c64	-0.29147637
3	0xbefa9825	-0.48944202
4	0xbe97aaf9	-0.2962263
5	0x3e17c021	0.14819385
6	0xbe808406	-0.25100726
7	0xbe8f9400	-0.28042603
8	0xbf139cdf	-0.5766124
9	0xbf218667	-0.63095707

weight f4 [90, 160]
0	0xbd3e6881	-0.04648638
1	0xbdf120bd	-0.117738225
2	0x3cab3876	0.020900946
3	0x3c2a51c2	0.010395469
4	0x3c055834	0.008138705
5	0xbbbc415e	-0.005745097
6	0xbc76d964	-0.015066478
7	0xbd56faa5	-0.052485127
8	0xbcd57307	-0.026055826
9	0xbe059eb5	-0.13048823
10	0xbd7dfc01	-0.062007908
11	0xbdfc8416	-0.12329881
12	0xbd9d2d22	-0.07674624
13	0xbc4bbc81	-0.01243508
14	0xbde10542	-0.10987331
15	0xbc9dc716	-0.01925997
16	0x3d0499b2	0.032373138
17	0x3d8e2ad1	0.0694176
18	0xbd5b0a72	-0.05347676
19	0xbce56a2e	-0.028004732
20	0xbcc908a0	-0.024540246
21	0x3cd67520	0.026178896
22	0xbcd50510	-0.02600339
23	0x3d92c1a1	0.07165838
24	0x3b399b20	0.0028321221
25	0xbcba1c24	-0.022718497
26	0xbd9a2704	-0.07526973
27	0xbac48240	-0.0014992431
28	0x3d9d9385	0.07694153
29	0xbd5d625c	-0.05404888
30	0x3d172536	0.03690072
31	0x3cf8ed54	0.030386604
32	0xbd4a6645	-0.049413938
33	0xbd734015	-0.059387285
34	0x3c09555b	0.008382167
35	0xbe080b49	-0.13285555
36	0xbd4fb607	-0.050710704
37	0xbd6b8359	-0.05749831
38	0xbd344a8b	-0.044016402
39	0xbb9eeacc	-0.0048497673
40	0xbda5645a	-0.08075781
41	0xbdc1d90d	-0.09465227
42	0xbd9f8208	-0.07788473
43	0xbde94d86	-0.113917395
44	0x3c847582	0.016169313
45	0xbd90deff	-0.07073783
46	0xbdd5a8f8	-0.10432619
47	0xbc70fac6	-0.014708227
48	0xbdf18bed	-0.11794267
49	0xbd686535	-0.056737144
50	0xbbe9bb81	-0.007132948
51	0xbdf955fc	-0.12174603
52	0xbc9e216f	-0.019303052
53	0x3ba5942c	0.005053064
54	0x3ab95e26	0.0014142438
55	0xbd56bfe5	-0.0524291
56	0x3c7685fc	0.015046593
57	0xbd7ccec3	-0.06172062
58	0xbe063d3c	-0.13109297
59	0xbdb8d7c5	-0.0902553
60	0xbdcd0954	-0.10011545
61	0xbd165194	-0.036698893
62	0xbce705af	-0.028200952
63	0xbdeae1c6	-0.11468844
64	0xbd4ead04	-0.05045797
65	0xbdb5d110	-0.08877766
66	0xbd8f28fb	-0.06990238
67	0xbdf3b82c	-0.11900362
68	0x3d13f538	0.03612253
69	0x3babbd76	0.0052410914
70	0xbdab7fbf	-0.08373975
71	0xbd3c7288	-0.046007663
72	0x3ccdde58	0.025130436
73	0xbd0eb97e	-0.034844868
74	0xbded8005	-0.115966834
75	0xbcb3e8c5	-0.02196158
76	0xbd0a2ef3	-0.03373618
77	0x3c040e35	0.008060028
78	0x3d73966c	0.059469625
79	0xbe07c850	-0.13260007
80	0xbd666b06	-0.05625441
81	0x3ae47d40	0.0017432347
82	0xbb334a20	-0.0027357414
83	0xbd65eafe	-0.05613231
84	0x3d923c2d	0.07140384
85	0x3d603e9e	0.054747216
86	0xbd9b3acb	-0.07579573
87	0x3d9fa04b	0.07794245
88	0x3c3e4b38	0.011614613
89	0xbbe1e170	-0.0068933293
90	0x3ca31953	0.019909536
91	0x3c00dd78	0.007865302
92	0xbd0254e0	-0.031819224
93	0xbddba2fc	-0.10724446
94	0xbbeae49c	-0.0071683656
95	0xbe04eec0	-0.12981701
96	0x3d3ca1bf	0.04605269
97	0xbc05a8ae	-0.008157892
98	0xbe129477	-0.14314447
99	0x3c7c11bb	0.015385087
100	0xbd8437dd	-0.064559676
101	0xbd2ff855	-0.042961437
102	0xbd871c77	-0.06597226
103	0xbdfe087b	-0.12403961
104	0xbdbb5a85	-0.091481246
105	0x3c3695df	0.0111441305
106	0xbdce56a0	-0.10075116
107	0x3c2d2458	0.010567747
108	0xbd833ea7	-0.06408434
109	0xbdfa3ebf	-0.12218999
110	0xbdcd1f47	-0.10015731
111	0xbd03be7e	-0.03216409
112	0x3cfaf092	0.030632291
113	0xbd9c22f7	-0.076238565
114	0xbdd096d1	-0.10185016
115	0xbc7c1933	-0.015386867
116	0xbd357ad4	-0.04430659
117	0xbd95da9a	-0.073170856
118	0xbbf264f1	-0.007397287
119	0xbdb40a19	-0.087909885
120	0xbb7f322c	-0.0038939817
121	0xbd21bf3d	-0.03948902
122	0xba89472a	-0.0010473479
123	0xbd49df84	-0.049285427
124	0xbda6021e	-0.081058726
125	0xbd101e72	-0.035185285
126	0xbd0d188c	-0.034447238
127	0xbc8c76bb	-0.017146459
128	0x3c09b5fe	0.008405207
129	0xbda36367	-0.07977944
130	0xbde1053e	-0.10987328
131	0xbcc48d8d	-0.023993278
132	0xbda6cc79	-0.08144469
133	0xbdd4bda2	-0.10387732
134	0xbd6b3b19	-0.057429407
135	0xbd516f04	-0.051131263
136	0x3c4a2f83	0.012340429
137	0xbaad16c9	-0.0013205643
138	0xbdc37db1	-0.09545458
139	0xbc6d7f12	-0.014495628
140	0xbca81471	-0.02051756
141	0xbdebf9ab	-0.1152223
142	0xbdd17ba2	-0.10228659
143	0xbdbc7406	-0.09201817
144	0xbded981d	-0.11601279
145	0xbde55af5	-0.11198989
146	0xbcb363a4	-0.021898098
147	0xbdde7c6f	-0.108635776
148	0xbd42725a	-0.047472335
149	0xbd533fd8	-0.051574558
150	0xbd8f04b8	-0.06983322
151	0xbc9d3921	-0.01919228
152	0xbdac2b90	-0.084067464
153	0xbd64bc48	-0.05584362
154	0xbdd6a67e	-0.104809746
155	0xbd8be9ef	-0.06831729
156	0xbd83fda0	-0.064448595
157	0x3d0af87b	0.033928376
158	0xbdd1776b	-0.10227855
159	0x3cbfe3c6	0.02342404
160	0x3eeed537	0.46647045
161	0xbe49aa01	-0.19693758
162	0x3f6ebbc2	0.93255246
163	0x3fecb68c	1.8493209
164	0xbf716c57	-0.9430594
165	0xbf286b41	-0.65788656
166	0x3ee65bfc	0.44992054
167	0x3f870f29	1.0551502
168	0xbf437376	-0.76348054
169	0xbfc5e840	-1.5461502
170	0xc002d23b	-2.0440814
171	0xbf8623a6	-1.0479629
172	0x3f19177e	0.5980147
173	0xbd6ff707	-0.058585193
174	0xbeba36dc	-0.3636998
175	0xbd85b93e	-0.06529473
176	0x4005a020	2.0878983
177	0x3fbd9d93	1.4813713
178	0xbe033888	-0.12814534
179	0xbf5c28c0	-0.8599968
180	0xbef549e0	-0.47907925
181	0x3f808558	1.0040693
182	0x3f93df42	1.1552508
183	0xbeba38c0	-0.36371422
184	0xbf5c1324	-0.85966706
185	0xbeba072e	-0.36333603
186	0xbf4779c4	-0.77920175
187	0xbf583092	-0.8444911
188	0xbee4c36f	-0.44680354
189	0xbf058d25	-0.52168494
190	0x3e9d3ea6	0.3071186
191	0xbfe588cf	-1.7932376
192	0xbf0d63df	-0.55230516
193	0x3f10214d	0.5630081
194	0x3ea5b1a0	0.3236208
195	0xc014e81f	-2.3266675
196	0x3f2cda59	0.6752067
197	0x3ee75f3c	0.45189846
198	0x3e6a3aee	0.22874042
199	0xbe59db41	-0.21275045
200	0xbf0f1b65	-0.55901176
201	0x3f833477	1.0250386
202	0xbea7d8e3	-0.3278266
203	0x3f341834	0.7034943
204	0x3f2eed56	0.68330896
205	0x3f9e7cf3	1.2381881
206	0x3e6fd5d0	0.23421407
207	0x3f0b58a2	0.5443212
208	0xbf24e02e	-0.6440457
209	0xbf82f66f	-1.0231456
210	0xbfb7bd0c	-1.4354568
211	0xbe5708d7	-0.20999466
212	0x3e1c446c	0.15260476
213	0x3e82ee66	0.2557251
214	0x3f1b2c7a	0.6061474
215	0xbf9c528c	-1.2212691
216	0x3ed6d206	0.4195711
217	0xbe31ffa6	-0.17382678
218	0x3f124fb0	0.57152843
219	0x3e327648	0.17427933
220	0xbe5811f6	-0.21100602
221	0xbf0c878b	-0.5489432
222	0x3fa3a53d	1.2784802
223	0x3f3ca793	0.736932
224	0xbf119222	-0.56863606
225	0xbfc61d0c	-1.5477614
226	0xbf55c002	-0.83496106
227	0xbf653c13	-0.8954479
228	0xbe24a09e	-0.16076896
229	0xbec76a4b	-0.38948283
230	0xbf3705ce	-0.7149323
231	0xbf308901	-0.6895905
232	0x3efdc3d2	0.49563462
233	0xbe3dcf42	-0.18536094
234	0xbbe84945	-0.0070888125
235	0xbd6f6bc7	-0.058452394
236	0x3ed7133b	0.4200686
237	0xbe4b2ab8	-0.19840515
238	0xbf8161dd	-1.010799
239	0x3f874579	1.0568076
240	0x3f4c21ea	0.7973925
241	0xbde65c6e	-0.11248098
242	0x3f04c6e2	0.5186597
243	0xbf00ac9d	-0.50263387
244	0xbde76c70	-0.1129998
245	0xbe3c7bb0	-0.18406558
246	0xbf9d77ea	-1.230222
247	0xbe8a2e74	-0.26988566
248	0x3f7d2b17	0.98893875
249	0xbc24f446	-0.010068005
250	0xbde3f82e	-0.11131321
251	0x3f64dd7a	0.89400446
252	0xbf9fbf3c	-1.2480235
253	0x3e3b318e	0.18280622
254	0x3f47cb6f	0.7804479
255	0xbf7ef2c4	-0.9958918

bias f4 [90]
0	0xbe0025b1	-0.12514378
1	0x3e828d75	0.25498548
2	0xbf0741fe	-0.5283507
3	0x3ee8b787	0.4545252
4	0xbe93bc72	-0.2885471
5	0xbdad8a73	-0.08473673
6	0x3fa80716	1.3127162
7	0xbda5ef70	-0.0810231
8	0xbda48a8e	-0.0803424
9	0x3d94388b	0.07237347
10	0xbe8a2d3c	-0.26987636
11	0x3e6399f5	0.22226699
12	0xbd52c74b	-0.05145959
13	0xbeeb6558	-0.45975757
14	0xbe00cc97	-0.12578045
15	0xbf0de3e3	-0.5542585
16	0xbefdc65a	-0.49565393
17	0x3e83c2c2	0.25734526
18	0xbf1c4d74	-0.61055684
19	0xbf685cae	-0.9076642
20	0xbe238740	-0.15969563
21	0x3f727402	0.94708264
22	0x3fac7feb	1.3476537
23	0xbf32d5f6	-0.6985773
24	0xbe9d9502	-0.30777746
25	0xbed9d4da	-0.42545205
26	0xbe6ca4da	-0.23109761
27	0xbd89313c	-0.06698844
28	0xbfb48efa	-1.4106133
29	0x3e04e316	0.12977251
30	0x3f3a2002	0.7270509
31	0xbf65701d	-0.89624196
32	0xbde26870	-0.11055076
33	0x3d855124	0.06509617
34	0xbf7cd805	-0.9876712
35	0xbd995d7f	-0.07488536
36	0xbde5d112	-0.112215176
37	0x3ef5868a	0.47954208
38	0x3dd3a2ba	0.10333772
39	0xbf86ced5	-1.053187
40	0x3e89fb58	0.26949573
41	0xbea6f859	-0.3261135
42	0xbf244bf1	-0.6417838
43	0xbedfeb1f	-0.4373407
44	0xbe40adda	-0.18816319
45	0x3eb97b5a	0.36226922
46	0xbecc6809	-0.39923123
47	0xbd9ff5f4	-0.07810584
48	0xbe06636e	-0.13123867
49	0xbdbc9c91	-0.0920955
50	0x3e3ba6c1	0.1832533
51	0xbe0d341e	-0.13789412
52	0x3f1df4aa	0.6170145
53	0x3e52e1d3	0.20593958
54	0xbea7bd81	-0.32761768
55	0x3ef712ed	0.48256627
56	0xbef42eb4	-0.47691882
57	0x3f414449	0.7549482
58	0x3f0a6dd3	0.5407383
59	0xbf18699e	-0.5953616
60	0xbdfc4636	-0.12318079
61	0xbf672a44	-0.9029887
62	0xbeed24f6	-0.4631726
63	0xbf10ab51	-0.5651141
64	0xbdc0f4e0	-0.09421706
65	0x3e6e869e	0.2329354
66	0xbf7dea90	-0.9918604
67	0xbe8b1582	-0.27164847
68	0xbeb2371d	-0.34807673
69	0xbf167a5d	-0.5878046
70	0xbf39c907	-0.7257237
71	0xbdc3d6e6	-0.09562473
72	0xbe847a49	-0.25874546
73	0xbe8559bd	-0.26045027
74	0xbfaf04a3	-1.367329
75	0x3e8aecba	0.27133733
76	0xbf29b70d	-0.6629494
77	0xbf1af23e	-0.6052588
78	0xbc7d89fb	-0.015474792
79	0x3da414f3	0.08011808
80	0x3f03220f	0.51223844
81	0x3f1851b6	0.5949968
82	0xbd70723d	-0.058702696
83	0xbedb5f66	-0.4284622
84	0xbe073235	-0.13202746
85	0x3f91ac15	1.138064
86	0xbf2395de	-0.63900554
87	0x3f4b700e	0.79467857
88	0xbf9b31df	-1.2124594
89	0xbf3b1f1a	-0.7309433

weight f4 [10, 90]
0	0xbdb37f4e	-0.08764516
1	0x3ee01b9e	0.4377107
2	0xbf609e24	-0.87741303
3	0xbf4b7c00	-0.79486084
4	0xbe92544e	-0.28579944
5	0x3d66f03c	0.05638145
6	0x3c940928	0.018070772
7	0x3f0455b1	0.51693255
8	0xbd3f465e	-0.046697967
9	0xbf1a1e53	-0.6020252
10	0xbe8f38c2	-0.2797299
11	0xbe1ce699	-0.15322341
12	0xbc693c58	-0.0142355785
13	0xbeb1e732	-0.347467
14	0x3ce7e74c	0.028308533
15	0xbf25ed51	-0.6481524
16	0xbf12f9c8	-0.57412386
17	0xbde51d41	-0.1118722
18	0xbf23afff	-0.63940424
19	0xbf3b929b	-0.7327058
20	0xbf003052	-0.5007373
21	0x3f1901f4	0.59768605
22	0x3eaf7c9e	0.34274763
23	0x3eb1ade8	0.34702992
24	0xbf37534e	-0.7161149
25	0x3e1feb76	0.15617165
26	0xbe1e9f18	-0.15490377
27	0xbc4c84e9	-0.01248286
28	0xbe72063d	-0.23635192
29	0xbedb1a9d	-0.42793742
30	0xbcdfce13	-0.027319944
31	0xbd8644c3	-0.06556084
32	0xbdc8a778	-0.09797567
33	0xbe9d125e	-0.30678076
34	0xbc9b1cbf	-0.018934606
35	0xbe11d8da	-0.14242879
36	0xbd3e7cd8	-0.04650578
37	0xbe64c386	-0.22340211
38	0xbe13c3de	-0.14430186
39	0xbe98029b	-0.29689488
40	0xbebb6fd9	-0.3660877
41	0xbdb9db11	-0.09074987
42	0xbd37014a	-0.044678964
43	0xbf06b705	-0.52623016
44	0xbebc6a59	-0.36799887
45	0xbf139050	-0.5764208
46	0x3dae17a8	0.08500606
47	0xbe2d549a	-0.16926804
48	0xbe053c80	-0.1301136
49	0x3d4f9272	0.05067677
50	0x3e8c8d0a	0.27451354
51	0xbc56908d	-0.013095987
52	0x3e42c15c	0.19019073
53	0xbf99e4d0	-1.2022953
54	0xbe0959c5	-0.1341315
55	0xbeda92d8	-0.42690158
56	0xbdc3a621	-0.09553171
57	0xbf51f66b	-0.8201663
58	0x3ee09428	0.43863034
59	0xbefcaaa1	-0.4934893
60	0xbd4941fe	-0.0491352
61	0x3cd292aa	0.0257047
62	0x3e4176ac	0.18892926
63	0xbf253c3c	-0.64545035
64	0xbda250f3	-0.07925596
65	0xbd604c27	-0.054760125
66	0xbdef558b	-0.11686238
67	0xbe97ac20	-0.29623508
68	0x3e0b8db3	0.13628273
69	0xbf0cb2eb	-0.5496051
70	0xbe8173c6	-0.2528364
71	0xb9b793ea	-0.00035014685
72	0xbdcc36d5	-0.09971396
73	0xbe9050a6	-0.2818653
74	0xbd942511	-0.07233632
75	0x3e8e3d55	0.27781168
76	0x3e521ced	0.20518847
77	0x3e5959b9	0.21225633
78	0x3d621d9b	0.055204015
79	0xbf0acc04	-0.54217553
80	0x3f054caa	0.52070105
81	0xbec2ce00	-0.3804779
82	0xbf434cfa	-0.7628933
83	0xbf3821ce	-0.7192658
84	0xbdeffb23	-0.117178224
85	0xbe83eec9	-0.25768116
86	0xbf6c1123	-0.9221365
87	0xbebe045c	-0.371127
88	0xbfaec4ef	-1.3653849
89	0x3ed276ab	0.4110616
90	0xbd54ab25	-0.05192103
91	0x3bb84404	0.0056233425
92	0x3e859942	0.2609349
93	0x3f22d6df	0.6360912
94	0xbd19191b	-0.037377458
95	0xbdf7242b	-0.12067445
96	0x3f2e336d	0.6804722
97	0xbe90ae43	-0.2825795
98	0xbde99d01	-0.11406899
99	0x3dde348a	0.10849865
100	0xbe2033a5	-0.15644701
101	0xbc83b06e	-0.01607534
102	0xbd77ca22	-0.060495503
103	0xbefab20b	-0.4896396
104	0x3be14ce4	0.006875621
105	0xbeb5fb7d	-0.35543433
106	0xbdb62e28	-0.08895522
107	0x3e3eb527	0.18623792
108	0xbf040601	-0.5157166
109	0xbe813516	-0.25235814
110	0xbea6fcec	-0.3261484
111	0xbfa63114	-1.2983727
112	0x3e23931c	0.15974087
113	0xbf447aa8	-0.7674966
114	0xbe3cf45b	-0.18452589
115	0x3e0f7503	0.1400948
116	0xbeb3c977	-0.35114643
117	0xbd038236	-0.0321066
118	0xbf5f21b7	-0.8716082
119	0xbe9917ba	-0.29900914
120	0xbc981b10	-0.018567592
121	0xbee61eb8	-0.44945312
122	0xbdee6160	-0.116396666
123	0x3e6c5ebc	0.23083013
124	0xbe836f38	-0.2567079
125	0x3d024202	0.03180123
126	0xbdf162a1	-0.1178639
127	0x3ee8a66a	0.45439464
128	0xbf8779b8	-1.0584021
129	0xbd44fa39	-0.048090193
130	0x3ed24942	0.41071516
131	0xbed3a802	-0.41339117
132	0x3d8d53ad	0.069007255
133	0xbf028b09	-0.509934
134	0x3eebad3f	0.46030614
135	0xbda0665c	-0.078320235
136	0xbe6a3b99	-0.22874297
137	0x3e989609	0.29801968
138	0x3d29fb0f	0.041499194
139	0x3b5e59ef	0.0033928116
140	0x3e8675c2	0.26261717
141	0x3cf5ac4a	0.02998938
142	0x3f022f4a	0.5085341
143	0x3ef6982e	0.4816298
144	0xbeae3d0d	-0.34030953
145	0xbdba2189	-0.090884276
146	0x3f37cc82	0.7179643
147	0x3f23b884	0.63953424
148	0xbcdb5136	-0.026772123
149	0xbdf11746	-0.11772017
150	0xbde96230	-0.11395681
151	0xbe3526b5	-0.17690547
152	0xbf3d7f26	-0.7402214
153	0xbca0f4ca	-0.019647975
154	0xbd82f087	-0.06393533
155	0xbf75ff55	-0.9609273
156	0xbf4c7baf	-0.79876226
157	0xbe976727	-0.29570886
158	0xbe9154eb	-0.283851
159	0xbd8c6b5b	-0.06856414
160	0xbeba7181	-0.36414722
161	0xbdb75d71	-0.089533694
162	0x3d1bff0b	0.038085025
163	0xbf885325	-1.0650374
164	0xbeb7e0f7	-0.35913822
165	0xbeb5bce0	-0.35495663
166	0xbebc5c16	-0.36789006
167	0xbeedcb5f	-0.46444222
168	0x3cf86684	0.03032232
169	0x3cd4dd31	0.025984379
170	0x3dc7876c	0.097426265
171	0x3d6f2b22	0.058390744
172	0xbf2dcf12	-0.6789409
173	0xbd5a3092	-0.053268977
174	0xbd3cd2f4	-0.046099618
175	0x3ea65237	0.324846
176	0xbce2eb29	-0.027700024
177	0x3e98ecca	0.29868156
178	0xbcbd5bbc	-0.023115031
179	0x3dd1b8c7	0.102403216
180	0xbd2d60f4	-0.04232879
181	0x3f17f3ab	0.5935618
182	0x3eee519f	0.46546647
183	0x3ea9c98c	0.3316158
184	0x3d5c9a30	0.053857982
185	0x3d067fdc	0.03283678
186	0xbf7b825b	-0.9824578
187	0x3ca3e644	0.02000726
188	0x3c831292	0.016000066
189	0xbe52329b	-0.20527117
190	0x3eb668fb	0.3562697
191	0x3ca4dc5c	0.020124607
192	0xbe0eeae0	-0.13956785
193	0xbe5a18b8	-0.21298492
194	0xbdcea764	-0.10090521
195	0x3d0e6a68	0.034769446
196	0x3da6b2fa	0.08139606
197	0xbf20ed55	-0.6286214
198	0xbed9c59e	-0.42533582
199	0xbe9830b0	-0.29724646
200	0x3d06a927	0.03287616
201	0xbebe3dc5	-0.371565
202	0xbf5f6d95	-0.87276584
203	0xbe97323a	-0.29530507
204	0xbe577703	-0.21041493
205	0xbd47eee0	-0.048811793
206	0xbe0b8157	-0.13623558
207	0x3d24995e	0.040185325
208	0x3e11955f	0.14217137
209	0xbed225f3	-0.41044578
210	0xbe2035c3	-0.15645508
211	0xbf3e8e97	-0.74436325
212	0x3be27636	0.0069110645
213	0xbc2e83d8	-0.010651551
214	0x3e80f3e5	0.25186077
215	0xbd6320ac	-0.05545108
216	0xbe0c587e	-0.13705632
217	0x3e039a72	0.12851885
218	0xbef14a6d	-0.47127095
219	0x3e6c626d	0.23084421
220	0xbe91ec67	-0.28500673
221	0xbde40fdd	-0.11135838
222	0xbeec92b2	-0.4620567
223	0x3d84ac6c	0.06478199
224	0xbde94599	-0.11390228
225	0xbf0dc3f0	-0.553771
226	0xbf4af605	-0.79281646
227	0xbe289f8f	-0.16467117
228	0xbd4b5bc3	-0.049648058
229	0xbc70f9e3	-0.014708015
230	0xbe2f05a6	-0.17091998
231	0xbc994c27	-0.01871307
232	0xbec0d97d	-0.3766593
233	0xbf1feccb	-0.6247069
234	0x3e34c9ad	0.17655058
235	0xbdf76f3c	-0.12081763
236	0x3d5c692a	0.05381123
237	0xbea3f187	-0.32020208
238	0xbf3e0819	-0.74231106
239	0x3f26e63d	0.65195066
240	0xbd49ad55	-0.049237568
241	0x3f185b2f	0.59514135
242	0x3c39031f	0.011292248
243	0xbecaf41f	-0.39639375
244	0xbd440813	-0.047859263
245	0xbf57d213	-0.8430492
246	0xbd76b2a9	-0.060228977
247	0xbea74751	-0.32671598
248	0xbdeee5fa	-0.11664958
249	0xbd7b803f	-0.061401602
250	0x3f49b1a3	0.7878668
251	0xbd74091d	-0.059579004
252	0xbde5a5a9	-0.11213238
253	0xbd81105d	-0.06301949
254	0x3ec1296a	0.3772691
255	0xbf03cd3b	-0.5148503

bias f4 [10]
0	0xbdd05b16	-0.10173623
1	0x3f7197a6	0.9437202
2	0xbd41bce8	-0.047299296
3	0x3f0f6024	0.56006074
4	0x3db08dd8	0.086208045
5	0xbf07031a	-0.5273911
6	0xbf7e6f73	-0.9938881
7	0xbe9d5ff5	-0.30737272
8	0x3ebdf816	0.37103337
9	0x3c7809c4	0.015139047
