MNIST CNN/Trained Models/ConvNet MNIST.pth (torch_old, 79965 bytes, 8 tensors)

weight f4 [6, 1, 3, 3]
00000000: eab6 943e 45cf 943e 2d41 613e 08b2 663c
00000010: a9ec 333e acee 3ebe 72ad c0be 3e36 0abf
00000020: 5b4b febe 84bb 963e b0e0 d53e cf0c db3e
00000030: 85b3 84be 1d22 dcbd 0347 a8bd cc35 5fbe
00000040: 0d79 c1be c3b3 a03e b002 693e 0259 343e
00000050: dfbb ca3e 5389 e4bd a860 f63e 5eaa c2bd
00000060: 920a c13e 9bc5 9bbd 733d 15be bea1 12bf
00000070: 1cf6 ba3d dd4c 0fbd c2b0 f2be 4b5c 26be
00000080: 76bd dc3e 9883 84be 29f1 3dbe fe90 8b3e
00000090: 3e77 f83e 50e1 723c deaf d5be 5c97 013e
000000a0: b687 22bf dc45 b8bd 026e aebe c259 c7be
000000b0: 3caa cf3e 673c 843e bb51 bc3e 4a85 93be
000000c0: 6ac1 10be b3d2 05bd 0d45 a03e 1244 70be
000000d0: 7fc5 463e 7727 eebc
0.29045802 0.29064384 0.21997519 0.014080532 0.17570747 -0.18645734 -0.37632328 -0.53989017
-0.49666867 0.29439938 0.41772985 0.4278321 -0.25918213 -0.10748694 -0.082166694 -0.21797866
-0.37787667 0.31387147 0.22754931 0.17612079 0.3959646 -0.11159005 0.48120618 -0.09505151
0.37703377 -0.076060496 -0.14574222 -0.5727805 0.09128973 -0.034985412 -0.4740048 -0.16246144
0.43113297 -0.25881648 -0.18549027 0.27259058 0.48528475 0.0148242265 -0.4173574 0.12655395
-0.6348833 -0.089976996 -0.34068304 -0.38935667 0.40559566 0.25827333 0.36781105 -0.2881263
-0.14136282 -0.03267164 0.31302682 -0.23463467 0.19411276 -0.029071553

bias f4 [6]
00000000: 7ae0 833e 370c 3cbe dc18 3bbe 50bf d5bb
00000010: 6394 763d c8fa e2bd
0.257572 -0.18364035 -0.18271202 -0.0065230504 0.060200106 -0.11082989

weight f4 [10, 6, 5, 5]
00000000: 41dd 0b3b 7ac4 6d3d 726f 003e cb91 e7bd
00000010: 472d 97be df2e b83a 2492 c9bd ae8b 92bd
00000020: c066 6abe 74b3 a3be 406b 4e3d e0fa 043e
00000030: 729f 553d cf66 89be 0c99 f6bd f957 febd
00000040: c8cf dfbd 8c13 0cbe 16d3 3abc 3b0b 9e3d
00000050: 4394 12bd 655d 00be f909 243e ca74 113e
00000060: 230e d93d 9fd8 f63d a2b6 5d3e 8aac 823e
00000070: 9f71 973e eb54 2d3e 33bf 2e3e dfe5 cf3d
00000080: 44f9 663e 3d09 bb3e 67cf 8f3e cddc 243e
00000090: 227e 373e 57c2 083e 5c97 383e 09f0 01bd
000000a0: d0e6 a1bd 457d 9b3d f6d6 99bd bbc4 1abe
000000b0: 47e9 29be b5da dcbd a02b 90bd 9c11 fcbd
000000c0: 5ede acbe e538 76be 22f5 7dbd 792f 5f3d
000000d0: cf6d b63d f176 78bd e3c4 86bb a4ab d9bd
000000e0: b305 54bd 1a2c 19bd 6fe8 b43d fa1e 173e
000000f0: b123 cdbd 9ecd 5d3d e1b5 6b3d 1f76 fe3d
00000100: ef49 513e 35d3 79bd 7db1 14be 7c3d e93d
00000110: a399 723e 658d 5f3e 921c ac3b 799a dd3d
00000120: 293c 643e d2ed 4d3e 3f7a ac3d 280b 6cbd
00000130: efef bbbd 8a7f fbbd 6c2b 8e3c d4f0 453e
00000140: 55bd b43d ae0a 4abe 9670 d6bd fb52 be3d
00000150: cc20 893e 60a4 07be 221f eabd 514f 0e3d
00000160: bf19 903e 06ad d43e 42a2 59be e9fa 86bd
00000170: a1a1 303e ce07 d23e 939d 063f 99e2 8cbd
00000180: 2e44 483d b897 033e 92fe 783e b94d a43e
00000190: 5bb5 36be f011 16be 6457 2fbd ff13 27be
000001a0: ecc7 73be 29dd 91be 94c7 4dbe 05e2 6bbd
000001b0: 07f6 413d 16ef 44be 4ae3 88be d8a1 b1bd
000001c0: 5ca9 383e a5c6 323e 7034 03bc 21ca f3bd
000001d0: f4d6 013e ce36 923e 7353 963e 6c9f 7c3e
000001e0: 1f98 cabd f929 5d3e e6fb 963e 5081 a13e
000001f0: ed79 253e 0a1b 183d dc2a dc3b 9b07 283e
00000200: 756d ce3e cd9e b23e c78d 893d 6988 663e
00000210: cc6f 753e 4d79 603e 3a75 8d3e fdb6 013d
00000220: 05e8 1e3e f36f 913d 0e09 953d bab0 d83c
00000230: 6583 04bd 57e3 f3bd b191 95bd 476d 97bd
00000240: 5f4a 9bbd d9bc f7bc 03f9 32be 2762 2dbe
00000250: f504 b73d 7d4e 7fbc a859 363d 4274 813d
00000260: 6c97 f83d 94ec 323d 1bdd 09be dad0 25be
00000270: 2679 e6bd 4f96 093e 7ed8 233e 0efb e53d
00000280: 8bed cdbd 1a29 81be 4677 abbd 3363 8c3b
00000290: 31a1 513e 7b04 16be 8fd9 d13d 2e0a 353e
000002a0: fadb 8e3e e15e 7d3e 2d7a 65be 3120 873d
000002b0: acaf 623e eb39 8b3e 0944 c43e 9c6f 883d
000002c0: da44 143e 6902 f83d 3766 123e bf68 ad3d
000002d0: 80cf a2bd f48d ddbd c3c8 eb3d f6d7 1c3e
000002e0: 0ea2 3b3e 7e29 38be 1b2a 83be 5a49 92be
000002f0: 4635 5fbe 4a64 49be d1a9 08bb 880c d0bd
00000300: d744 66bd be8f 92bd e2df 9bbd 93d8 a83d
00000310: c664 a43c 31ad 8bbd 88b7 b03d 61bc 043e
00000320: c836 00bd cfff d43d f31e 123d 9fea b8bd
00000330: 2775 15be 3f3d 1cbe e936 2dbe 3951 a8bd
00000340: 5bb8 563d 5bd9 413c b1ef 77be 364e 1a3c
00000350: ab37 cc3d 5d3f a53c 77a4 8e3d 3f17 93bc
00000360: 5aee 753e c199 093e fdd5 513e 6980 4a3e
00000370: af01 813d 4ef3 093e 5a08 b23d a386 b23c
00000380: 173a 653c c770 94bd d3d8 503c eba4 a1bd
00000390: dd8f ba3c 78ca 39bd 79f9 27bd eef0 0dbd
000003a0: d3e7 44be a037 68bc 8697 19be b97e 443c
000003b0: 9cda 913c d976 28be 8737 96bd 5633 c1be
000003c0: c6a2 483d f2fe ee3d 24fe 013d 24f8 e2bc
000003d0: 12cf b7be f456 babc d838 06bd d766 0bbe
000003e0: a0f4 09be 2c78 67be 5b64 6bbe cc7c 16be
000003f0: dfe9 5dbe c174 5abe 5a7e 70be 227a 5e3d
0.0021341594 0.058048703 0.12542513 -0.11307105 -0.2952673 0.0014052055 -0.09842327 -0.07155548
-0.22890759 -0.3197285 0.05039525 0.12986326 0.052154012 -0.2683625 -0.1204091 -0.12419123
-0.10928303 -0.13679332 -0.011402866 0.07716986 -0.035785925 -0.12535627 0.1601943 0.14204708
0.105983995 0.12053036 0.216517 0.25522262 0.29578874 0.16926925 0.17065124 0.10151266
0.22556025 0.36530486 0.28087923 0.16099854 0.1791921 0.13355385 0.18026489 -0.031723056
-0.07905352 0.07592253 -0.07511704 -0.15114109 -0.16592894 -0.107839026 -0.07039571 -0.12308046
-0.33763403 -0.24045141 -0.062001355 0.054488633 0.08907663 -0.060660306 -0.004112826 -0.10628441
-0.051763248 -0.037395574 0.08833396 0.1475791 -0.10016573 0.05415117 0.0575465 0.124248736
0.2043836 -0.06099244 -0.14520831 0.1138868 0.2369142 0.21831281 0.0052524293 0.10820479
0.22288574 0.20110252 0.08421754 -0.057627827 -0.09176623 -0.122801855 0.01735469 0.1933015
0.08825175 -0.19730636 -0.10470693 0.09293171 0.26782835 -0.13246298 -0.11431719 0.03474361
0.28144643 0.41538256 -0.21253303 -0.06590826 0.17249157 0.4102158 0.5258419 -0.068791576
0.048893146 0.12850845 0.24315861 0.32090548 -0.17842619 -0.1465528 -0.04280795 -0.16316222
-0.23806733 -0.28489044 -0.20095664 -0.057588596 0.04735377 -0.19231829 -0.26735908 -0.08673447
0.18033355 0.1745859 -0.008008108 -0.119037874 0.12679654 0.28557438 0.29360542 0.2467019
-0.09892296 0.21598043 0.29489058 0.3154397 0.16159792 0.03713516 0.0067189764 0.16409151
0.40317884 0.3488678 0.06716495 0.22512974 0.23968428 0.21921273 0.276285 0.03166865
0.15518196 0.07101431 0.07277118 0.026451457 -0.03235187 -0.11908596 -0.07303179 -0.0739389
-0.075825445 -0.030241417 -0.17477803 -0.16931973 0.08936492 -0.015582678 0.044519097 0.063210025
0.121382564 0.04368265 -0.13463251 -0.16192952 -0.11253576 0.13436244 0.16000554 0.112295255
-0.10055073 -0.2522667 -0.08372359 0.0042842864 0.20471646 -0.14650147 0.10246574 0.17679664
0.27902204 0.24743225 -0.22409888 0.06597937 0.22137326 0.27192625 0.38333157 0.06661913
0.1447939 0.12109835 0.14296804 0.08467244 -0.07949734 -0.10818091 0.11512902 0.15316758
0.18323538 -0.17984578 -0.2561806 -0.28571588 -0.21797666 -0.19667163 -0.0020853172 -0.1015864
-0.056217995 -0.07156323 -0.07611062 0.08244433 0.020067584 -0.06820143 0.08628756 0.12962486
-0.031302243 0.10400354 0.035674047 -0.090291254 -0.14595471 -0.15257739 -0.16915478 -0.08218617
0.05242191 0.011831607 -0.24212529 0.009418061 0.09971555 0.020171816 0.06964963 -0.01795542
0.24016705 0.13437559 0.20491786 0.19775547 0.06299149 0.1347172 0.08692999 0.021792715
0.0139909005 -0.07248073 0.012747007 -0.07892784 0.022773677 -0.045359105 -0.0410094 -0.034653597
-0.19229059 -0.014173418 -0.14999208 0.011993104 0.017804436 -0.16451587 -0.0733481 -0.3773448
0.048983358 0.11669721 0.031736508 -0.027706213 -0.3590017 -0.02274654 -0.032769054 -0.13613449
-0.13472223 -0.22604436 -0.22987501 -0.14696044 -0.21671246 -0.213336 -0.234857 0.054315694

bias f4 [10]
00000000: d71c 68bd 4677 5fbc a9b0 bebd c2f8 1e3e
00000010: 199d f7bd a6c8 1bbe 84fa 96bd fde4 053d
00000020: 6c20 ccbd 123f a33d
-0.05666813 -0.013639277 -0.09311039 0.15524581 -0.12090511 -0.1521326 -0.07372001 0.032689083
-0.099671215 0.07971014

weight f4 [90, 160]
00000000: deee 03be 4234 5cbc fd26 e6bc 0134 13bd
00000010: 8f71 b7bd 70db dcbd d99c a4bc e56f 1f3b
00000020: cb7a edbd df02 51bd 46e5 95bd ca32 1dbc
00000030: a59a f2bc c58f 663c d6e6 b9bd 24f0 84bd
00000040: c676 03be 64e6 01be 8f03 dabd c384 0ebd
00000050: d365 fbbd da3b 593c 5382 07be 0f02 a4bd
00000060: 0c93 ccbd ee2f 9d3c d738 f5bd 5c7c cabd
00000070: 820f 70bd f0dd 0cbe 0b15 03bd 640d 0bbe
00000080: 1d63 203b 4911 f0bd 4790 82bd dce9 99bd
00000090: a2a9 8c3b 5ea9 09bd 9953 3abd b575 0c3c
000000a0: 9ffb 113d 39f3 d7bd 0c02 e0bc ea4a e8bd
000000b0: dc09 5a3d c72b cb3c 29fc d4bd c651 b7bd
000000c0: d847 ffbd 6cfe 85bd 1ff6 903c 13a1 dabd
000000d0: b7c2 bdbd 77bc 8abb 9296 03be c3dd c7bd
000000e0: ba52 babd b024 9ebd 9e35 4bbd 98d3 1e3c
000000f0: 748e 9bbd 55a3 c5bc a4f6 3fbd 9aa2 bfbd
00000100: e465 71bd c96a 9e3c 1f8e 84bc 6a6e 0dbc
00000110: cdf3 92ba cb2c b3bc ac86 3ebd 78b3 ed3b
00000120: f879 9a3d 13b4 d13d c9ea 71bc 878e 843c
00000130: e2ff 8c3c 98d1 afbc cb20 883c caa4 843d
00000140: 4e55 a6bc 717d e3bd a7cb 243b 8721 ebbd
00000150: 5f36 ffbd 09f2 fbbb c35c 503c 6321 c2bd
00000160: 3399 38bc cf11 a63a 8a9a d3bd a36f f1bd
00000170: 1d06 8d3a 6831 a0bb 5c1c 94bd 2c34 d7bc
00000180: 3f75 c5bd f540 49bd ba02 47bd 09b6 b2bd
00000190: 3c7d 72bd df80 373c d3dc b5bd 3ad1 26bd
000001a0: b3a5 f4bd 09b8 aabd 4e0d b4bd 6e24 d4bc
000001b0: e349 acbc e7b2 bdbd 5ce0 4dbc b198 f2bd
000001c0: ed23 21bd 25b0 e3bd 4c58 84bd 1c38 45bd
000001d0: ad61 b1bd 3ab9 00be 38b4 dfbd 2a37 c2bb
000001e0: c3e3 88bc 715d 3fbd 5dbe c0bd e818 803c
000001f0: ceb3 3abd e54a 94bd fa41 cdbc f129 83bd
00000200: a8c0 c8bd 6647 8a3c 9da6 89bd 8168 e1bd
00000210: f47c f6bd 9a94 ecbd bfe5 60b8 b16f e5bd
00000220: ca60 8ebd 2ca6 1d3b 3bf7 3dbd 2c86 a5bd
00000230: 00eb 773c a98b 3d3d 4082 0cbc a4c8 fbbd
00000240: f604 233c 86d1 f4bd 2f4e 0c3b 265c 313a
00000250: 4187 98bd 51a5 aebc a5a4 09be 79ed 2cbb
00000260: d530 99bc 3f02 0cbe dd03 34bd b189 25bd
00000270: 44ae 0cbe 65e7 a8bd 2218 36bc 6314 c0bd
00000280: f4a4 483c 69b6 83bd a662 c73b c768 283e
00000290: bd77 dbbd c3eb 8bbd 4fe9 b7bc e2ee e6bc
000002a0: 550f 8b3d bbb7 333e c6ba 0a3a 361e f8bc
000002b0: f6c7 aabd 46da a23b 7cae 123e 681c 1d3e
000002c0: 351d 2ebd c50b 64bd 7dc9 103d 0c88 8c3d
000002d0: 0186 03be 3698 e73d ee3f 8b3d 486b b73d
000002e0: bf69 dd3d fe5c d9bc 4f25 93bd b7b1 45be
000002f0: a35f f93d 3b28 e63d f30f 01bd d029 7fbd
00000300: 8763 98bd ce8a dabb b651 d2bd 8076 88bd
00000310: a8a4 2d3e 7d0f cb3d cdae 8a3c 85ab 04bd
00000320: ac2c 4e3e 91bf 483e 24f4 293e 0788 fa3c
00000330: 8584 6dbd 61dc 08be 158e bcbd 4908 1dbe
00000340: fe55 f3bd 8105 02bd d054 b43d ccc6 89bd
00000350: 9402 e33d 1faa ce3d 0308 2ebd 9605 e4bd
00000360: 6c68 d23c ce3e 68bd a9ef 0b3e 7177 acbd
00000370: 938e 61bd 1dd8 c83d 3806 be3c 668c 84bd
00000380: 21c4 0bbe 2522 cbbd 071e 51bd bb7e 133d
00000390: e845 fa3d 455f 8e3d f3aa b13d 3667 babd
000003a0: 134c 4c3c be11 023c 7322 9d3d 4475 90bc
000003b0: 7e26 5d3c 33fc 05bd 5b44 f7bc ca27 00be
000003c0: bd92 02be 4c6b 35bd 01b7 ac3c 7af1 9f3d
000003d0: 07bc 5b3e 5acb 763e dd74 083e 9ead e83d
000003e0: e46e ba3d 34e4 a03d 4c63 2e3e 4690 f53d
000003f0: c554 0b3c 046b 6f3d e6b0 8abd 37ab d1bd
-0.1288409 -0.013440194 -0.028094763 -0.035938267 -0.089572065 -0.10784042 -0.020094322 0.002432817
-0.115956865 -0.05102813 -0.07319121 -0.009594629 -0.029614756 0.014072363 -0.090772316 -0.06491116
-0.12838277 -0.12685543 -0.1064521 -0.03479458 -0.12275281 0.013258899 -0.13233308 -0.08008205
-0.099889845 0.019187894 -0.11973732 -0.09887001 -0.05860854 -0.13756537 -0.03200249 -0.13579327
0.0024473139 -0.11722047 -0.06375175 -0.07515308 0.0042926827 -0.033608787 -0.04548988 0.008572985
0.035640355 -0.10544438 -0.027344726 -0.11342414 0.05323206 0.024801148 -0.10399658 -0.08951144
-0.12464875 -0.06542668 0.017695485 -0.10675254 -0.092656545 -0.0042338925 -0.12850407 -0.097590946
-0.0909781 -0.07721841 -0.04961168 0.009694003 -0.0759553 -0.024125734 -0.046866074 -0.09357186
-0.05893506 0.019338029 -0.01618105 -0.008632282 -0.0011211574 -0.021871945 -0.04651515 0.0072540604
0.07542795 0.102394246 -0.01476545 0.016181244 0.017211858 -0.021462247 0.0166172 0.064767435
-0.020304348 -0.111079104 0.00251458 -0.11481004 -0.12461542 -0.007688765 0.012717429 -0.09479024
-0.011266994 0.0012670102 -0.1033221 -0.11788871 0.0010759268 -0.004888702 -0.072319716 -0.026269995
-0.096415035 -0.049134213 -0.048586585 -0.08726127 -0.059201464 0.011200159 -0.088800095 -0.040726878
-0.11945667 -0.08335883 -0.087916 -0.025896277 -0.021031326 -0.092626385 -0.0125656985 -0.1184553
-0.039340902 -0.11117581 -0.06462154 -0.048149213 -0.08661208 -0.12570658 -0.10923046 -0.005926986
-0.016710168 -0.046719972 -0.09411309 0.015636876 -0.04558163 -0.072408475 -0.025055874 -0.06404484
-0.09802371 0.016879749 -0.06721232 -0.11006261 -0.12035552 -0.11551781 -5.361973e-05 -0.11202944
-0.06952055 0.0024055345 -0.046378355 -0.08082232 0.015131712 0.04627577 -0.008575976 -0.122941285
0.009949913 -0.11954026 0.0021408906 0.00067657453 -0.07447673 -0.021319063 -0.13441713 -0.0026386662
-0.018700043 -0.13672732 -0.043948997 -0.040414516 -0.13738352 -0.0824726 -0.011114152 -0.093788885
0.012246359 -0.06431276 0.006084758 0.1644622 -0.10716198 -0.06832077 -0.022450117 -0.02819008
0.06790034 0.17550556 0.00052921136 -0.030287843 -0.08338921 0.004969868 0.14324373 0.15342867
-0.042508323 -0.055675287 0.035348404 0.068618864 -0.12844087 0.11308329 0.06799303 0.08956009
0.10811185 -0.0265336 -0.071848504 -0.19306074 0.121764444 0.11238142 -0.03150935 -0.062295735
-0.07440858 -0.006669379 -0.102694914 -0.06663227 0.16957343 0.099150635 0.016929055 -0.032390136
0.20134228 0.19604327 0.16597039 0.030582441 -0.05798771 -0.13365318 -0.092067875 -0.15335192
-0.11881636 -0.03174353 0.08805239 -0.067273706 0.11084476 0.10091042 -0.04248811 -0.11133878
0.025684558 -0.05670052 0.13665642 -0.08421219 -0.05506761 0.09806845 0.023196325 -0.064720914
-0.13649036 -0.09918622 -0.051054027 0.03600953 0.12220365 0.06951765 0.08675184 -0.09101717
0.012469309 0.0079388 0.07672586 -0.017634042 0.013497947 -0.03271122 -0.030183962 -0.12515178
-0.12751289 -0.04429178 0.021083357 0.0780973 0.21458445 0.2410101 0.1332583 0.1136124
0.09103182 0.07856026 0.17030066 0.119904086 0.008504097 0.058451667 -0.06772022 -0.10237735

bias f4 [90]
00000000: 16b6 b2bd e72f 87bd 6252 b93d 82d3 043e
00000010: 3cc6 e6bc 4211 5d3e 8743 0f3d 762e 20be
00000020: eae1 51bd 1ce0 b5bd 0bea d8bd 2ac2 fdbd
00000030: 4c09 f93b 7035 c4bd 47bc c0bd 8265 173c
00000040: eec5 c0bd 16c8 363e 4e94 0abe 5105 1c3e
00000050: cfdb ddbd 9a50 2c3e 7db6 1abe 26b6 84bd
00000060: f949 353e a55d 1fbc 23ac f3bd 6892 5bbd
00000070: 4e70 4b3e 318a 3e3e 7c0b cebd a5dc c9bd
00000080: 6a74 98bd 3c91 6ebc b928 b4bd a157 f1bd
00000090: e970 f3bd dd63 3f3e d490 06be 27e8 b4bd
000000a0: 8a72 a5bc 1d27 fdbd 5fc1 61bd 60b6 4ebd
000000b0: 25bf 1b3d f9b8 95bd 6160 be3d b15f 573e
000000c0: 5d1f ac3d 81db a43d fc53 eebb dc98 3dbd
000000d0: b8ea 1b3d 51e3 5abd 6ae7 153e 22a0 a9bd
000000e0: 248c dcbc 182f 213e 14a0 d7bd 96b0 323e
000000f0: bd55 0c3e f362 a1bd 65f8 32be 0258 dbbd
00000100: 4674 f8bd 4899 713e d0a6 debc 935d 503b
00000110: e443 c4bd 493a bfbd 4631 05bd bcbf a4bc
00000120: 3aa9 813d 9f67 c73d a9cb d53d df88 c4bd
00000130: 1baf 9b3d 1877 8abd 36e4 a93a a1a7 7fbd
00000140: 2c6a 1bbd 2aa8 e7bc 0f6a dabd 0856 073d
00000150: 5ed2 2f3e e92b 02be f381 b03d 1e78 97bd
00000160: 4848 f7bd c38a 8cbc
-0.087261364 -0.066009335 0.090489164 0.12971309 -0.028170697 0.21588615 0.03497651 -0.15642723
-0.05124084 -0.08880636 -0.10591515 -0.123905495 0.007599985 -0.09580505 -0.09410911 0.00924051
-0.09412752 0.17849764 -0.13533136 0.15236403 -0.10832941 0.16827622 -0.15108676 -0.064800546
0.17704 -0.009726916 -0.11898067 -0.05360642 0.1986706 0.18607403 -0.10060784 -0.09856538
-0.07444079 -0.014560994 -0.0879683 -0.11784292 -0.1188677 0.18690439 -0.13141185 -0.08833342
-0.020196218 -0.12360976 -0.055116054 -0.050466895 0.038024087 -0.07310671 0.092957266 0.21032597
0.084044196 0.080496795 -0.0072731953 -0.046288356 0.038065642 -0.053439442 0.14639059 -0.08282496
-0.026922293 0.15740621 -0.10528579 0.17450175 0.13704582 -0.07880201 -0.17477567 -0.107101455
-0.121315524 0.23593628 -0.027179152 0.0031794056 -0.095832616 -0.09337289 -0.032517694 -0.020110957
0.063311055 0.09736561 0.10439236 -0.095964186 0.07601758 -0.067609966 0.0012961689 -0.062415723
-0.03794305 -0.028278429 -0.1066476 0.03304103 0.17170092 -0.12712063 0.08618536 -0.073959574
-0.120743334 -0.01715601

weight f4 [10, 90]
00000000: 61ce 20be 193d 93be 89fa 033d 3606 f43d
00000010: 9516 a23d 0ebd 96be 5a79 083e 038f cabd
00000020: 6f36 a93c 50b4 83bd ea4e 6bbe 00e4 1c3e
00000030: 0f07 83be 4286 20be df53 f33b fe23 59bd
00000040: 42e7 bebd 082f dbbd b640 843d 6857 c43b
00000050: e5fe 7fbc 079f fa3d 3489 8bbe 058f 90be
00000060: fb62 f33b 98b5 eebc 1702 da3a d289 863d
00000070: 3784 4ebd a524 6fbc 215a 62be 5ffb 0cbb
00000080: 709f 303e 51ce 1f3e 2e34 84bd d8d7 7dbc
00000090: a1ce 85bd 8ee1 fd3d da83 5b3e 123c 14be
000000a0: eea7 f8bd f3fa 473d a90d 8b3c cae4 2fbd
000000b0: d5d4 01be 585e 54bd 03bb aa3d 776f 8a3e
000000c0: ac90 96be 1099 bfbd 099e 68be 7fc7 9d3e
000000d0: 1239 27be 050f d13d a627 a9bc 1353 003d
000000e0: 4295 0ebe c236 66be b439 eebd d54c 81be
000000f0: af16 c13c 96e0 c73d 4656 55be 665a d1bd
00000100: 71b6 803c a19e 74be 65fb e4bd 2c64 b83d
00000110: e561 eb3d 6a22 d23d 3dfc 8ebe ffef ee3d
00000120: 246f a53d 1191 43be 2c36 f2bb 6feb 0bbc
00000130: 5804 5fbd 20b7 013e 4c20 e43d c13a 343e
00000140: d417 e8bd a49d 4cbe 8666 f73b e1fd 5ebe
00000150: 73a3 2dbe 4c18 553e 44ea 01bd e197 ca3b
00000160: 796d 3bbc 9d96 0c3d 0e74 033c 945b 83be
00000170: 41bb 47be 88d2 0d3e 6bcb 45be d09f b73d
00000180: dd73 69bd d729 5bbe 5986 cbbd cc82 663c
00000190: 8cb3 fcbc e1ee 65be f991 dc3d 7414 0abe
000001a0: c1d1 71bd 90d5 c63d 63c0 12be 725e 8a3e
000001b0: 6ce3 213d e431 2c3e 6634 2aba 0e5f 6d3e
000001c0: 912a 57be ae18 31be d14e 84bc 843e 923d
000001d0: c368 e23a 31cc f43b 5c34 4c3e 4c86 773e
000001e0: ba29 19be 1c9e 4b3d 02f8 55be 9254 6abe
000001f0: 12aa e33c 74f9 1abd 9286 843a ab16 e53d
00000200: add5 4abd 82c3 83be 5dd6 013e 8351 05bd
00000210: c183 69be 8824 983d 3273 81be 0c7a 94bd
00000220: 1c2e 5cbe 5078 ea3d 82a9 a43e 5e97 86bd
00000230: cf11 dd3d 2701 cb3c ecd2 393e 49c0 92bd
00000240: c1a2 0c3e 2a72 72bd a652 703d 4754 5d3e
00000250: bea6 afbd 4e85 283e c549 763e f896 87be
00000260: d7f7 86be 213c 173d e910 11be 88dd 643e
00000270: 6a63 0e3d c75e 463d 5c92 1c3d b0a7 77be
00000280: b691 9b3d bd16 02bd dc56 0abe a97a 6c3d
00000290: 1e0d f13d 9a5c 3a3d 8d08 3bbe 7d4a 70be
000002a0: cd51 4dbe ecb2 5dbe 6be8 e7bd 23f4 cd3d
000002b0: 335c bb3d 7ada 643d dc15 063e 41d3 83be
000002c0: b28f 4c3d 9475 953b e46d efbd d86b 943b
000002d0: 413d e93d 5bd7 79be 7fbe 31be 08c2 523e
000002e0: 79d5 f53d f326 833d 2ddf a33d 4259 0c3e
000002f0: c8d6 053e 713b fb3c 4595 bbbc de4c ce3d
00000300: 890c af3d e874 353d 2620 2ebd 7ed3 283e
00000310: e64a d8bc 5707 3d3d 0cbd e93c 7d37 ab3d
00000320: e939 ffbd 6a8e 243e b51e 2a3e 88e2 283e
00000330: 2cc7 d7bd 098f 473e 67bd 10be 17f3 febc
00000340: ec08 62be 9ded 01bd c978 5e3e 84b7 41bd
00000350: 7a73 3cbd c2c7 f0bd e6f0 57bd 656b bf3b
00000360: 3fb9 03bd ade8 d2bd a1de 0a3e 00fb 19be
00000370: cece 473d 6c1c dcbd 7442 22be 3089 77bb
00000380: a68f 353d c499 8bbd cca9 27be 5cb9 e2bd
00000390: fd58 cdbd 4e19 ac3d 2a0e 973d 7438 5b3e
000003a0: 1a23 53be 9146 1fbd 9f16 863d bb08 143d
000003b0: 4312 123e 6f1f 39be 4a0d 3ebc 5362 7abe
000003c0: a344 4f3e b9d2 3fbe 193f 1a3e cb77 cb3b
000003d0: 6a20 bc3d 43a6 1ebe 9184 ab3d eece 2d3e
000003e0: ee36 27bd e82d 903d 36a1 8b3d cecc 00bd
000003f0: 65f3 f73c 7d67 4bbe ae1c 093e abf5 2ebd
-0.15703727 -0.2875755 0.03222135 0.11915247 0.079144634 -0.29441112 0.13327542 -0.098905586
0.020655839 -0.06430876 -0.22979322 0.1532135 -0.25591323 -0.15676215 0.0074257697 -0.05301284
-0.09321453 -0.1070233 0.06457655 0.005991865 -0.015624736 0.12237363 -0.27253115 -0.28234115
0.007427571 -0.029139325 0.0016632703 0.06569256 -0.05041906 -0.014596139 -0.22104694 -0.0021512134
0.1724832 0.15606047 -0.06455265 -0.015493356 -0.06533552 0.12396537 0.21437016 -0.1447604
-0.12141405 0.04882331 0.016974287 -0.0429428 -0.12678845 -0.051847786 0.08336451 0.27038166
-0.2940725 -0.09355366 -0.22716536 0.30816266 -0.16330364 0.10207943 -0.020648789 0.031329226
-0.13924125 -0.22481826 -0.116321 -0.2525393 0.023570387 0.09759633 -0.20833692 -0.1022232
0.015711995 -0.23888637 -0.11180762 0.09003481 0.11493281 0.1026047 -0.27926818 0.11666869
0.08077839 -0.19098307 -0.0073917117 -0.008540018 -0.054447502 0.12667513 0.11138973 0.17600538
-0.1133267 -0.1998201 0.0075500635 -0.21776535 -0.16956882 0.2081005 -0.031717554 0.006182656
-0.0114396745 0.034323324 0.008023275 -0.25655806 -0.19505025 0.13849843 -0.19315879 0.08966029
-0.05699526 -0.2140268 -0.09937734 0.01406927 -0.030847333 -0.22454406 0.107700296 -0.13484365
-0.059037928 0.097087026 -0.14331202 0.2702518 0.039523527 0.16815907 -0.00064927933 0.23180792
-0.21012332 -0.17294571 -0.016150864 0.0714083 0.0017273653 0.0074706306 0.19941849 0.24172324
-0.14957324 0.04971133 -0.20895389 -0.22883824 0.027791057 -0.037835553 0.0010110906 0.11185964
-0.049520183 -0.25735098 0.1267943 -0.03254844 -0.22804166 0.07428843 -0.252832 -0.07249841
-0.21501964 0.11448729 0.32160574 -0.0657184 0.10794412 0.024780823 0.18146867 -0.07165582
0.1373396 -0.059190907 0.05867257 0.2161418 -0.085767254 0.16457102 0.24051578 -0.26482368
-0.26360962 0.036922578 -0.14166607 0.22350132 0.034762777 0.04843023 0.038225517 -0.24185061
0.075961515 -0.031759966 -0.13509697 0.057734165 0.1177008 0.045498468 -0.1826498 -0.23465915
-0.20050736 -0.21650285 -0.11323627 0.10056331 0.09148445 0.055872418 0.13094276 -0.2574711
0.049941726 0.0045611355 -0.11690882 0.0045294575 0.113886364 -0.24398558 -0.17357825 0.2058183
0.12003607 0.06403913 0.08001552 0.13705924 0.13070214 0.030667992 -0.022898326 0.10073255
0.08547313 0.044300944 -0.042511128 0.16486928 -0.026402902 0.046149578 0.028532527 0.08360193
-0.12462217 0.16069952 0.16613276 0.16492665 -0.10536036 0.19488157 -0.14134751 -0.031121774
-0.22073716 -0.031720746 0.21725763 -0.047294155 -0.046008565 -0.11756851 -0.052719973 0.00584166
-0.032159086 -0.10298286 0.13561489 -0.15037155 0.04878121 -0.107476085 -0.15845662 -0.003777098
0.044326447 -0.06816438 -0.16373366 -0.11070511 -0.10026739 0.08403264 0.073757485 0.21408254
-0.20618859 -0.038885657 0.065472834 0.03614114 0.14264779 -0.18078397 -0.011599848 -0.2445157
0.20241027 -0.18732728 0.15063132 0.006209349 0.0918587 -0.15493111 0.083748944 0.16973469
-0.04082387 0.07040006 0.06817858 -0.031445317 0.030267427 -0.19863696 0.13389847 -0.042714756

bias f4 [10]
00000000: 1730 d3bc f34c ea3d 5e38 45be 2a44 09be
00000010: 6b59 d7bd 98e5 30bd 50aa f0bd 9b7b b63d
00000020: 8159 4ebe 49ca fdbd
-0.025779767 0.11440458 -0.19259784 -0.13404909 -0.10515102 -0.043187708 -0.117512345 0.089102946
-0.2015133 -0.123920985
